nohup: ignoring input
total trainable params: 3217369
model: Model(
  (features): Features(
    (aa_embedding): Embedding(23, 56)
    (signle_compress): Sequential(
      (0): Linear(in_features=384, out_features=128, bias=True)
      (1): GELU(approximate='none')
      (2): Linear(in_features=128, out_features=64, bias=True)
    )
    (pair_compress): Sequential(
      (0): Linear(in_features=128, out_features=128, bias=True)
      (1): GELU(approximate='none')
      (2): Linear(in_features=128, out_features=64, bias=True)
    )
    (chain_embedding): Embedding(4, 8)
    (distance_compress): Sequential(
      (0): Linear(in_features=256, out_features=128, bias=True)
      (1): GELU(approximate='none')
      (2): Linear(in_features=128, out_features=64, bias=True)
    )
    (pae_compress): Sequential(
      (0): Linear(in_features=16, out_features=16, bias=True)
      (1): GELU(approximate='none')
      (2): Linear(in_features=16, out_features=16, bias=True)
    )
    (plddt_embedding): Embedding(20, 16)
    (va_embedding): Embedding(62, 32)
    (ja_embedding): Embedding(65, 32)
    (vb_embedding): Embedding(70, 32)
    (jb_embedding): Embedding(16, 32)
    (hla_embedding): Embedding(43, 32)
    (single_position_encoding): PositionEncoding()
    (pair_position_encoding): RelativePositionEncoding(
      (embedding): Embedding(801, 144)
    )
    (single_out): Linear(in_features=144, out_features=128, bias=True)
    (pair_out): Linear(in_features=144, out_features=128, bias=True)
    (point_out): Linear(in_features=160, out_features=128, bias=True)
  )
  (pairformer): PairformerStack(
    (blocks): ModuleList(
      (0-3): 4 x PairformerBlock(
        (pair_update): PairUpdate(
          (tri_mul_out): TriangleMultiplication(
            (norm): LayerNorm((128,), eps=1e-05, elementwise_affine=True)
            (norm1): LayerNorm((128,), eps=1e-05, elementwise_affine=True)
            (linear_ab): Linear(in_features=128, out_features=256, bias=False)
            (linear_abg): Linear(in_features=128, out_features=256, bias=False)
            (linear_g): Linear(in_features=128, out_features=128, bias=False)
            (linear_out): Linear(in_features=128, out_features=128, bias=False)
          )
          (tri_mul_in): TriangleMultiplication(
            (norm): LayerNorm((128,), eps=1e-05, elementwise_affine=True)
            (norm1): LayerNorm((128,), eps=1e-05, elementwise_affine=True)
            (linear_ab): Linear(in_features=128, out_features=256, bias=False)
            (linear_abg): Linear(in_features=128, out_features=256, bias=False)
            (linear_g): Linear(in_features=128, out_features=128, bias=False)
            (linear_out): Linear(in_features=128, out_features=128, bias=False)
          )
          (tri_attn_start): TriangleAttention(
            (norm): LayerNorm((128,), eps=1e-05, elementwise_affine=True)
            (linear_qkv): Linear(in_features=128, out_features=96, bias=False)
            (linear_b): Linear(in_features=128, out_features=4, bias=False)
            (linear_g): Linear(in_features=128, out_features=128, bias=False)
            (linear_out): Linear(in_features=32, out_features=128, bias=False)
          )
          (tri_attn_end): TriangleAttention(
            (norm): LayerNorm((128,), eps=1e-05, elementwise_affine=True)
            (linear_qkv): Linear(in_features=128, out_features=96, bias=False)
            (linear_b): Linear(in_features=128, out_features=4, bias=False)
            (linear_g): Linear(in_features=128, out_features=128, bias=False)
            (linear_out): Linear(in_features=32, out_features=128, bias=False)
          )
          (transition): TransitionLayer(
            (norm): LayerNorm((128,), eps=1e-05, elementwise_affine=True)
            (linear_ab): Linear(in_features=128, out_features=1024, bias=True)
            (linear_out): Linear(in_features=512, out_features=128, bias=True)
          )
        )
        (single_update): SingleUpdate(
          (attn): AttentionPairBias(
            (norm): LayerNorm((128,), eps=1e-05, elementwise_affine=True)
            (linear_q): Linear(in_features=128, out_features=128, bias=False)
            (linear_kv): Linear(in_features=128, out_features=256, bias=False)
            (linear_b): Linear(in_features=128, out_features=8, bias=False)
            (linear_out): Linear(in_features=128, out_features=128, bias=False)
          )
          (transition): TransitionLayer(
            (norm): LayerNorm((128,), eps=1e-05, elementwise_affine=True)
            (linear_ab): Linear(in_features=128, out_features=1024, bias=True)
            (linear_out): Linear(in_features=512, out_features=128, bias=True)
          )
        )
      )
    )
  )
  (head): Linear(in_features=256, out_features=1, bias=True)
)
Epoch 0, Batch 0, Loss: 0.651035726070404
Epoch 0, Batch 1, Loss: 0.8373066782951355
Epoch 0, Batch 2, Loss: 0.6200594902038574
Epoch 0, Batch 3, Loss: 0.5309720039367676
Epoch 0, Batch 4, Loss: 0.5874118804931641
Epoch 0, Batch 5, Loss: 0.5601621866226196
Epoch 0, Batch 6, Loss: 0.6182344555854797
Epoch 0, Batch 7, Loss: 0.576471209526062
Epoch 0, Batch 8, Loss: 0.7104499340057373
…
